doofus/params.pt (torch, 34271 bytes, 6 tensors)

fc.0.weight f8 [50, 22]
0	0xbfbff4fe4a920ea3	-0.1248320514733288
1	0x3fea9a2ee499b52e	0.8313211884357423
2	0x3fdc662a35532b35	0.44373564918048497
3	0xbfde0962ee69b9d6	-0.4693229034664034
4	0x3fd810356db7c533	0.3759893008674055
5	0xc02056c97324bc3c	-8.169505689844407
6	0xbfcb19e213162293	-0.21172738964039137
7	0x3fdde4f1ff832e32	0.4670987124670517
8	0x3fe074d15c1d0b84	0.5142599867907482
9	0xbfc724b3ef1659dc	-0.1808075826090335
10	0x3fcba7c180ad9ed6	0.21605700286021684
11	0xbfcd7975c9b9d996	-0.23026916837598027
12	0x3fe0f1b6773be7f8	0.5295059517659402
13	0xbfd21e357c4a574d	-0.2830938066266427
14	0xbff0b638ae8cfd69	-1.0444876497639035
15	0xbfe16cfc7eb0f8a7	-0.5445539926947917
16	0x3fe2a6df1c2c52f8	0.5828700590378437
17	0x3fba2f24ecf4b511	0.1022818640237413
18	0x3f83bb2dabd65cd8	0.009634358221588021
19	0x3f9a4162bbb4fcbf	0.025640051562046958
20	0xbfb4f5dc5663207f	-0.08187653645575386
21	0xbfce927ce08360e1	-0.23884545290525863
22	0x3ff95de7ab2f5405	1.5854260146054469
23	0xbfd5188029ba048a	-0.3296204001890791
24	0xbfea9b6386e5e1ba	-0.8314683565832219
25	0x3fbae2909b9cccc0	0.10501960562833101
26	0xbfef75cb39a0e0ad	-0.9831291318469276
27	0x3ffe20058e7e0ede	1.8828177991971908
28	0x3ff92248d6dc1118	1.5708702462152981
29	0xbfb9d863a7c629bf	-0.10095808836027852
30	0xbff0af2018d3931a	-1.042755219438908
31	0x3f97989b8094d63f	0.023043088648782236
32	0xbfcf1e0edf39601c	-0.24310480022063607
33	0xbfd5ce51fda6a34a	-0.34071779032324356
34	0xbfb8beb33d2bd25f	-0.09665985339581472
35	0xbfd85841ed2b84ac	-0.38038681183941025
36	0xbf754bdc3eec21f6	-0.005199299178237462
37	0xbfc71bb1a1010b6d	-0.18053264962699292
38	0x3fb4ad58c1b2fe58	0.08077006081566063
39	0xbfcb49b6520bb9df	-0.21318701749937838
40	0x3fb7db9cbc2fdba7	0.09319476694496008
41	0x3fd91b594809c543	0.3922942355630605
42	0xbfd006b3d3333000	-0.25040908455844146
43	0xbfdce18b762381e3	-0.451266160363984
44	0x3ff05ee31af15150	1.0231658031890056
45	0x3fead38a206f51a9	0.838322699879929
46	0x3feee2fb07e9a925	0.9652075914903305
47	0x3ff35f3e00a500b0	1.2107524895837223
48	0xbff700fca26bd89f	-1.4377409309941311
49	0x3fef93d69845a36b	0.9867966627181038
50	0x3fdfa82b06db2569	0.4946391646340858
51	0x3fe4a5e8158cbd85	0.6452522679227718
52	0x3fed12f4185d03b0	0.908563659271854
53	0x3f90750a87cdab5a	0.01607147649648808
54	0xbfb1cd7de3439135	-0.06954180525241756
55	0xbfc516820e580927	-0.16474939060578572
56	0xbfdea727bfcf29f0	-0.4789523480546043
57	0xbff664b058aa1c2c	-1.3995822394806607
58	0x3f95cbf11b081e15	0.021285788798222145
59	0xbfd8f3326d320086	-0.3898435655937721
60	0x3fbd1bf4fe7bb827	0.11370784008951827
61	0xbfc837be98e22358	-0.18920118775374806
62	0x3fba084d0ac2b060	0.10168916237552272
63	0xc003c20c14f0075d	-2.469749606680962
64	0x3fa84c0c3501ef01	0.04745519778313501
65	0xbfabf7bdc4df211d	-0.05462449100702058
66	0xbf975eb5fc544753	-0.022822230840638124
67	0xbfa9a418535fba31	-0.05008007066486576
68	0x3fe0a8b8083d714f	0.5205955658853244
69	0x3ff729142d40cfd5	1.447529007692528
70	0x3fd0161ba76d7992	0.251349366668273
71	0xbfe5964b22b03866	-0.6745963742739718
72	0x3fc0433f12ae49b3	0.1270521966185477
73	0x3ff32c18084b93be	1.198265106585708
74	0xbfda5caea93cdaed	-0.41190687682266863
75	0xbfbea931fe843e3c	-0.11976921523841438
76	0x3fe034ac9e8a635d	0.5064299675460507
77	0x3fc258f766c72977	0.14334003942924387
78	0xbfebbada9f49b674	-0.8665593253223975
79	0xbff6e7f63d24f4dc	-1.4316313160373317
80	0x3f92005e9378c3d5	0.01757953429313715
81	0xbfd34d0a1da335e5	-0.3015771188191521
82	0xbfd368815caebbee	-0.3032534985640599
83	0xbfe4556ae5d7474b	-0.6354269494133659
84	0x3fc0fa96dd4b54b9	0.1326473789728533
85	0xbfb83dc81c61c98b	-0.09469271366996261
86	0xbfd1f08de1bff7f9	-0.28030726476561046
87	0x3fbddc79d42e6281	0.11664544515805099
88	0x3fabecbfe9d705cb	0.054540631575502006
89	0x3fea0f3bc544cf03	0.8143595555215771
90	0x3fd08c282e472310	0.25855450171779726
91	0xc023100c91dba671	-9.531345899641765
92	0xbfe1293f7d21562a	-0.536285156626666
93	0x3fe283a75766a962	0.5785710055400097
94	0xbfa5aaed899b539e	-0.04231970124025185
95	0x3fe89204bc57699c	0.7678245237869308
96	0x3fc0e0a49b4043a9	0.13185556011788194
97	0x3faa2d479b6942b6	0.051126706811037634
98	0xbfd8357ab6e6bcf1	-0.3782641206880291
99	0xbfb3a52a229f242f	-0.07673896165137316
100	0xbff87fc1f2e12158	-1.531190823314395
101	0x3fe9e1a17813a49d	0.8087928147553104
102	0x3f7a0d7f2814763d	0.006360527711220918
103	0x3fc9dd9ed1232213	0.2020758172204898
104	0xbfe0331bf09b2792	-0.5062389087045054
105	0x3fa4c1c3d3175392	0.040540809171637396
106	0xbf6baa19a694906f	-0.0033770085325546743
107	0xbfab5753be1c3644	-0.0534006280487174
108	0xbfac563167f0b203	-0.05534510034371822
109	0x3fc435473d9760d5	0.15787592418087706
110	0xbfd506121c32593c	-0.32849552873212295
111	0x3fc33ea71873636d	0.15034950918086612
112	0xbfe202e0a90e6dc1	-0.5628512670404505
113	0x40081a66a3d0b766	3.012891082579631
114	0x3fdb6f8b28ab8bd4	0.42868308040322955
115	0x40070e5c79e2e4d6	2.8820123216979523
116	0xbfee29dd211ac4fd	-0.9426103254865265
117	0xbfc981f4c7fac70e	-0.19927844776753328
118	0x3faf72406d06e4dd	0.06141854601760042
119	0x3fc57b1cdd521f95	0.16781960303000845
120	0x3fe915380ead2b40	0.7838402067803614
121	0xbfe831441e094f38	-0.7560139261863474
122	0x3ff3cfa83a7e4eaf	1.2381975445650075
123	0xc003c78d157e703d	-2.4724370650492618
124	0x3ff25686b3a57f98	1.1461245553436807
125	0xbfc706c335607e24	-0.1798938761357799
126	0x3ff68c0663e91f87	1.4091857817420264
127	0xbfa2e80ceaed9fb9	-0.036926654508362806
128	0xbfaecb6a9c111aa5	-0.060145694304585086
129	0xbfa16d25d8cdf0f5	-0.03403585692919534
130	0xbfbc9de8aa788664	-0.11178449785122663
131	0xbfb47ab766fc314b	-0.07999750389371234
132	0xbfcce9dae021a5a5	-0.22588668769757905
133	0xbfe5f4c62fe76948	-0.6861296592353847
134	0x3fdcca6418f377c1	0.4498529666578826
135	0x3ffda1b5bfdccbe9	1.8519799704197288
136	0xbfdffe6a635965d0	-0.4999032945830466
137	0x40012242efcf049d	2.1417292342235457
138	0xbff0ab876789f3d5	-1.0418771786200882
139	0xbff2a0e4b8cb45f1	-1.16428062615557
140	0x3ff6bf8ada874647	1.4217632805124525
141	0xbfc6b301e729d233	-0.17733787333749404
142	0xbfd81f1f1ca160f4	-0.3768995074838266
143	0xbfe03c1a98da6503	-0.5073369012272056
144	0xbfe600db6647323e	-0.6876046178454727
145	0xbfe3a9f64bcc868a	-0.6144973259399233
146	0xbfdfdf1becfc2a1f	-0.4979924978548826
147	0xbfe56e9356e8b6c5	-0.6697479913179555
148	0x3fe4922410f0ff16	0.6428394633184975
149	0x3fe54920c4a4cf30	0.6651767578791574
150	0x3fa56e9ff4a3e9aa	0.04185962544757456
151	0x3f8a13b8b05aa595	0.01273292816343278
152	0x4001d4ec430ab82f	2.2289662587782213
153	0x3ffd4afedc111d89	1.8308094593392943
154	0x3fe256356019ff90	0.5730234982474816
155	0x4022902f13e76240	9.281609174723712
156	0x3ffa2252ac34cf33	1.6333796240623542
157	0x3fda4d76f47ae371	0.41097806811335774
158	0xbfe01f05d9a63bc7	-0.5037869692767963
159	0xbf9fb1973ce74d0d	-0.030950892536407305
160	0xbfeecb1d0073695d	-0.9622941025548176
161	0x3fe2e4c157b922e5	0.5904242242187051
162	0xbff2f73f4359f8f4	-1.1853630667606554
163	0xbfd8601a38d867d7	-0.3808656268243999
164	0xbfa3ac37769b7ad5	-0.03842328379481833
165	0xbfe8eb1cdb3e0d19	-0.778700283248699
166	0x3fc3833def4407f3	0.15244268591783303
167	0xbfc0d057d5074504	-0.13135812665726843
168	0xbfcece2002cdca94	-0.24066543709667043
169	0xbfd4956fbb6e984d	-0.3216208773031937
170	0x3fb43295bb4ef1fe	0.07889686415632721
171	0xbfc2fd5a08f71748	-0.14835668027643067
172	0x3fb2a2d7e8479e09	0.07279729290859661
173	0xbfab3903688c0c02	-0.05316935206612784
174	0xbfdf218b9d95792f	-0.4864224471001703
175	0x3fd1f835616013dc	0.2807744456225103
176	0x40010af2e59c3a9f	2.1303461015989593
177	0x3ffbb574a832c53b	1.7318007059332803
178	0x4000ddf86ba642a6	2.1083839807618743
179	0xbff4809f5d25afd1	-1.2814019812167212
180	0xbfe9d602503a0211	-0.8073741499829926
181	0xbffe811813fc354e	-1.906517103259222
182	0x3ffe2c8c384bde7f	1.8858759116245947
183	0x3ffd07a5d5810904	1.8143671360017501
184	0x40016dd971f19221	2.178637399849564
185	0xbff9dc7031cbb7cc	-1.6163179345271486
186	0xc0016a68ba203543	-2.1769575635031813
187	0xbff5ce1b3c463f1f	-1.362818942496183
188	0xbffcab847bc4ee09	-1.7918743929611785
189	0x400be374e86e5ec7	3.486062827938301
190	0xbffb534a71b3de0f	-1.7078346673496332
191	0xbfedcf808e44c128	-0.9315798548396161
192	0xc0008843dbd67233	-2.066535680276752
193	0xbff01bec12b75cd8	-1.0068169337371753
194	0x3f9b151623e3d322	0.02644762605719387
195	0x3fc8515e38a92325	0.1899831558860338
196	0x3fccf6fe88b15c13	0.22628766703084632
197	0xbfaa43610714b4a6	-0.05129531108318845
198	0x3fdf5f796b11d156	0.49020228820815726
199	0xbfc5e15a6ad95bed	-0.1709397336696549
200	0xbfdd94f35fca5608	-0.46221622805146056
201	0xbfe136d0fd283a13	-0.5379414505458179
202	0xbfd2d7be60647a7d	-0.294417947896285
203	0xbfe9c7d598d58a32	-0.8056438431779667
204	0xbfb2dde97a90f757	-0.07369860880222966
205	0x3fac34e889b42c34	0.05509115868525108
206	0x3fca5f494de695da	0.20603290847536365
207	0xbfa8acc1c759d41b	-0.04819303091509416
208	0xbfd433ff9e7246b8	-0.31567373727112225
209	0x3fb537ef22aea36d	0.08288473698361339
210	0xbf98790f35a159b4	-0.023899305008251395
211	0xc0004d1d6add9734	-2.037653765571031
212	0xbf92e4094a7af925	-0.018448014422341025
213	0xbfcaf8a6c2960f73	-0.21071323872831335
214	0xbfc5d42eda893f9d	-0.17053781195363352
215	0xbfbf591610886b86	-0.12245309737811114
216	0xbfb00714d7344e6b	-0.06260805372249371
217	0x400b5a3ca5e0e5bf	3.4190609893091444
218	0x3f922a2e87e2bd69	0.01773903564816007
219	0xbfa9ae219b9d4492	-0.05015664124096832
220	0x400a1ac9ec5553fe	3.2630804503955906
221	0x400106c38b03e937	2.1283026562279264
222	0x3fe04ef8cf18201b	0.5096401257333157
223	0xbfa6653c8ac1f2d7	-0.04374112314051153
224	0xbffdc7df25fb4039	-1.861296795239481
225	0xbfe99089187ab6ac	-0.7988934972870161
226	0x40111f9ee4634ba7	4.280879562912481
227	0x3fe97116927ca24d	0.7950547085830039
228	0x3fd2727fd152cd1d	0.2882384819196931
229	0x3fc58b3326319766	0.16831054081847724
230	0xbfb873c6d4192fc1	-0.0955166118448565
231	0xbfe8c840700dc3b5	-0.7744447887945315
232	0x3fff5ace6a8800d3	1.9596695100190586
233	0xbfaf0e9f498da9fb	-0.06065843365543696
234	0x3fdd07c86bd60dc3	0.4536000302398088
235	0xbfe15ec0e1de3243	-0.5428165828212247
236	0x3fdf8d7793649d2a	0.49300946611261287
237	0xbfe684b93794d165	-0.7037015996525439
238	0xbf791214531e04d9	-0.006120757478016625
239	0xbfcd75ee6596c126	-0.23016147575754892
240	0x3fcd64f169aad861	0.22964303645648257
241	0xbfc8247478d4911c	-0.18861251735609919
242	0x3fdb36cca4256177	0.42521968870052923
243	0x3ff8a270115d1be1	1.5396576574582854
244	0x3ff84baadf646324	1.5184735037093526
245	0x3f70e8d7c7ff5a5e	0.004128306289166687
246	0xc000406522e510eb	-2.031442902198355
247	0x3fd0d8bac2c84da4	0.26322812101099147
248	0x3fc3938c46caaed6	0.15294030624988036
249	0x3fe1c7def4235caa	0.5556483047793297
250	0x3fd1759706e01e28	0.2728021208899656
251	0x3fb8986c113b3979	0.09607577725112106
252	0xbfb3817f44e36cc4	-0.07619471961827445
253	0xbf6be79a70821f7d	-0.0034063354870034744
254	0xbfcbd58e3c4c72e6	-0.21745469993847805
255	0xbfb5bff5dca1a3f4	-0.0849603332186602

fc.0.bias f8 [50]
0	0x3fe0111e1099bb5b	0.502089531348115
1	0xbfecfab7cd17bace	-0.9056052213398631
2	0xbfea1a2e01369f7d	-0.8156957648943571
3	0x3feaecff6bb451da	0.8414303878403715
4	0xbff361a05c881fa3	-1.2113345732231913
5	0x3fe6ac62fce4f7cc	0.7085432948440427
6	0x3fff681c939d9823	1.962917877791832
7	0xbffc3dccd53bee82	-1.765087922044501
8	0x402022515f296ad6	8.06702706699927
9	0x3fd8b7fec3210dc3	0.3862301736409927
10	0xc01481ef0b5ce5fa	-5.126888444466653
11	0xbff5e0653da5bab9	-1.3672840507603452
12	0x3ff08fb2289313f6	1.0350820145551984
13	0xbfde25164a495311	-0.47101361517461365
14	0xc009bf1d5ab1496f	-3.2183177075723317
15	0xbfc004ce1a0c9989	-0.12514663955625974
16	0xc00a15a7606f5ceb	-3.2605731519685057
17	0xbff41dc3da7bb4cf	-1.2572668585301476
18	0xbff31cbec9165c5b	-1.1945178847288591
19	0xbfd459746d829e03	-0.31795988745076914
20	0x3ff55cea5663df88	1.3351844191183506
21	0xbffa3dae07e4991d	-1.640058546859627
22	0x40160163a7a6107b	5.501356715689435
23	0xbff1e448799043fc	-1.1182331799102476
24	0xbfe9714e40a7281f	-0.7950812590363546
25	0x3ff5fa13316d6d01	1.3735534601935913
26	0xc0140de46186fd20	-5.013566516746579
27	0xbfdc7297c70f52a8	-0.444494194406881
28	0x40113526040a5246	4.301902831201522
29	0x400d53d3b1398c8f	3.665931114739187
30	0x3ff5c1a6bbeb4cec	1.3597781506148818
31	0x3fec994f431967f2	0.8937145529300763
32	0xc022868a55ed19b2	-9.262774167244832
33	0x400b48d95a000499	3.4105708152060967
34	0xc010582855b7c661	-4.086091365186435
35	0xbff81d509079f5b6	-1.5071569102868643
36	0xc007a12049a6a880	-2.9536748651490257
37	0xc014bd84031c3e3f	-5.185073898886514
38	0x3fd978ac44dc31bb	0.3979902908766026
39	0x3fb3c21ca8c9c18a	0.07718066330722287
40	0x400e5cb404eaa8aa	3.7952652343857
41	0x3fac45d324028440	0.05522022070477606
42	0xbff70378acb4b1cc	-1.4383475061723514
43	0x40072e318bd4e946	2.897555439410243
44	0x4001425d5b8043e8	2.1574046276586962
45	0xbff66cddb278429d	-1.4015786143756153
46	0x3ffcc4e64b5696ae	1.7980711882495757
47	0xbfce3b56d309acc0	-0.23618588738040636
48	0x400d0307968632ac	3.6264793166831932
49	0x4013f861a5966bc8	4.992559993082018

fc.2.weight f8 [50, 50]
0	0xbfcbc712e5f48032	-0.217012750895266
1	0xbfd6f633266b5129	-0.3587768435657091
2	0xbfad67e756185e0a	-0.05743334699598897
3	0xbf988acf8910f5eb	-0.02396702074132932
4	0x3fbbf2f190b42985	0.10917577536398511
5	0xbfd4eea89712cb07	-0.32706656220686664
6	0xbfda726b7d4a5f41	-0.41323363528634977
7	0x3fd7b85695440d2a	0.370626111762436
8	0xbfdac1c0646afbf8	-0.4180756550449014
9	0xbfb84a3bc8c019af	-0.09488271380550971
10	0xbfec77ddc28a2527	-0.8896321105577599
11	0x3f67e896c8e60a81	0.002918524266705192
12	0x3fe304cec6fe25ad	0.5943368803574934
13	0xbfe9a0a8213fc755	-0.8008614205739187
14	0xbfd99048d85c3598	-0.3994314301388271
15	0x3fc0d22ef5b0176d	0.1314142894408933
16	0xbfc709b4bc976a48	-0.17998370369498873
17	0xbfb9e6a9a8197cc9	-0.10117588380807087
18	0xbffcb473fac21c26	-1.794055919193633
19	0xbf975a06979ba56d	-0.02280435848562006
20	0x3fc03df2ee9a3e29	0.1268905320216487
21	0x3fbc58bea90103ed	0.11072913766930954
22	0xbff20ab50a24f648	-1.127614059092041
23	0xbfe2adf142362627	-0.5837332051461929
24	0xbfc61214e362747d	-0.1724268064762419
25	0xbfbb9a34bb5ee577	-0.10782174658279141
26	0xbff96ae324b4fe6d	-1.5885955270640821
27	0xbfc7e1933a8c7886	-0.18657150610755852
28	0xbfc3b31d02db4831	-0.15390360488396618
29	0xbfe144cbc86b27c2	-0.5396479525018025
30	0xbfda88455dad49f3	-0.41456731937537866
31	0xbfd478a2ec900b81	-0.3198630628759745
32	0x3fe9c46bda6ddc0d	0.8052272096819039
33	0xbfecf491a0e64fdd	-0.9048545973369034
34	0x3ff255594551e441	1.1458370883758706
35	0xbfa4d0594fb86fe0	-0.04065207574987517
36	0x3fb868a8b5134c6f	0.09534696980272071
37	0x3fecc7c0d0613b8f	0.8993839330595267
38	0xbf93922f4c7fcb3c	-0.019112338108196555
39	0xbfd59594ecb82fda	-0.33725474469315275
40	0xbf982fd1df30e9a0	-0.02361991810560371
41	0xbfcaa489cdb5e230	-0.2081463102765766
42	0xbfe7bdf7b0f1ed4d	-0.7419393974263727
43	0x3fbb2e66f938a7c2	0.10617679199700006
44	0xbfd4095c8ad4ed00	-0.3130713802126621
45	0xbfe26ed9cd57858d	-0.5760315905173897
46	0xbf98097c8f76b40e	-0.023473688370064187
47	0xbfd9efc66a8e9ba9	-0.4052597084614101
48	0xbfe0ede85f97291c	-0.5290414683343303
49	0xbfe55e8b082c5924	-0.6677909049638271
50	0xbfe1f63560bd9e34	-0.5613047494379715
51	0x3ff456f2d2dcd631	1.2712276684591297
52	0xbfcfb87f1be990ea	-0.24781788695248191
53	0x3fbb503b34069ee5	0.10669298191225669
54	0xbfcd6a5b1584eb26	-0.22980822134726359
55	0xbfde417cb50e54c8	-0.4727470176815811
56	0xbfec056d56a17b62	-0.8756624881751629
57	0xbfe932fc19851955	-0.7874737261234183
58	0xbfdd5f0addd851f7	-0.4589259306387982
59	0xbfe0339ef8a98f5a	-0.5063013893782042
60	0x3fe918e919db21c8	0.7842908387183849
61	0xbfaa4768d4da032a	-0.05132606123243584
62	0xbfd1ea3a07790765	-0.27992106179964643
63	0x3ff2dc94eeae4c4e	1.1788529704542898
64	0x3ff0ff7720a3760e	1.0623694682066147
65	0xbfbb3a6ece6bafb0	-0.10636036433760299
66	0x3ffaf09c826de04a	1.6837430090800063
67	0xbfe4cd6bb3d68242	-0.6500757706126665
68	0xbfc4a534e68a05e8	-0.16129170662684023
69	0x3f95cbb863f33a52	0.021284943676443575
70	0x3fd4b7a8a2dade15	0.3237096395855315
71	0x3fecd2c85b35ccdf	0.9007303029487977
72	0xbffea70ca2da53ca	-1.9157835351409056
73	0x3ff8dd6bc280a63e	1.5540578458552683
74	0xbf97b25cc4a11245	-0.02314133596543601
75	0x3fd04c8257d05af3	0.25466974807333925
76	0xc0018f50dbdd0022	-2.1949784447497374
77	0xbfca6e2847f9e04a	-0.20648673548180546
78	0xbfc354cb5d5bd255	-0.15102521952180106
79	0xbff531dc478d788b	-1.3246729655288927
80	0xbfc5a2ff81354241	-0.1690368061922687
81	0xbfe337fc1031aa14	-0.6005840603150454
82	0xbfbad462cff438d7	-0.10480325295449987
83	0xbffcda50d5aac027	-1.8032997461668943
84	0x3fe5ff5be510011c	0.6874217485310825
85	0x3fcc324e76bc219f	0.22028523252107576
86	0xbfbba8bb646caa75	-0.10804339601296838
87	0xbfc93a89c4de3c1b	-0.1970989428777735
88	0xbfe88673b5861790	-0.7664125962626134
89	0xbfdded84d34900f3	-0.4676220000583406
90	0xc00b9b92c939f179	-3.450963565903461
91	0x3fc571e4516b92c8	0.16753820396038166
92	0xbfd268c2f5c9ec1f	-0.2876441383629657
93	0xbfe0d9b3fd7dc54b	-0.5265750838281432
94	0xbfd6f4cd84ad39d8	-0.358691577498488
95	0xbfee88b01cb83af3	-0.9541855393343596
96	0xbfe0bbdd40ca2140	-0.5229326501294409
97	0xbfca7ca188eabc8a	-0.20692843614003592
98	0xbfe38079759d54b6	-0.609432916370358
99	0xbfd6b034206848ab	-0.35450461544781814
100	0xbfd0229131ba2be1	-0.2521098123185635
101	0xbfddd37ee1141d67	-0.4660336683304735
102	0xbfa7f47c0a8176b0	-0.04678714397662753
103	0xbfe24173a69d868c	-0.5704897169309375
104	0x3fccc5aac3d6250f	0.2247823196633267
105	0x3fd1f97650614226	0.2808509621582139
106	0xbfd05b311faf7c58	-0.2555659112385391
107	0xc00ffd71f8bd1ef2	-3.998752539893638
108	0x3f8704e0f68c84b3	0.01123977425010234
109	0xbfbc74b686095429	-0.11115589878438982
110	0x3fe82be3b293d209	0.755357598098784
111	0x3fdd0e1e9e59ddd1	0.45398679222077215
112	0xbfcba994427268a5	-0.21611264461973181
113	0x3fea8b6883750b6e	0.8295176093600796
114	0xc0054bb39ac2b9ec	-2.6619636622119653
115	0xbfbe1a34912ff059	-0.11758736176119679
116	0xbffb44ba88004736	-1.70427945256638
117	0x3fe0b2d9fcaa1071	0.5218324599122878
118	0xbfd29ab574b6c47b	-0.29069267652364034
119	0xbfdc0b61e5463b14	-0.4381947268492905
120	0xbfcd4ab364b07ad7	-0.22884218613122329
121	0x3fc801bc113f16f0	0.18755293695556174
122	0x3fc3cb867ea0a5c7	0.15464860136971323
123	0xbfd5ec8bab6ae088	-0.3425625967024719
124	0x3fbc49c9d2963884	0.11050092116622251
125	0xbfd345699e7d2784	-0.30111160733633136
126	0x3fc9a8f0b16c68ad	0.20046814597373466
127	0xbff11823d327d57a	-1.0683935402169866
128	0xbfd5ad757e9a8a2e	-0.33871209491386167
129	0xbfafb0797f0e74fd	-0.06189326930982906
130	0xbff1ad18989c1937	-1.1047597848242512
131	0xbfd0f54eeb282051	-0.26497242893720335
132	0x3fa97e3a0e1f0638	0.049791158889558707
133	0xbff0e3675c850312	-1.0555184949918766
134	0xbfef905e343adac8	-0.9863730449786425
135	0x3fcf3feac818aa82	0.24413809557275462
136	0xbfcc34ec83ef8e1d	-0.22036510889221086
137	0x3fc174c5ade935c9	0.1363761042761509
138	0xbfbdae54c2477b55	-0.11594133132119329
139	0xbfd0a9090e4f6759	-0.26031710050084694
140	0xbfdb501b5bf1aa80	-0.4267643354311659
141	0xbfcbe46f631414b9	-0.2179087861806346
142	0xbfc5e8ac9144c987	-0.1711631497688126
143	0x3fdb8389bdf9d024	0.4299034457428681
144	0xbf8d54669d5dae7f	-0.014321138074328886
145	0xc00c519dae33f75b	-3.539851532898792
146	0xbfd5205969fa129e	-0.33009944295216964
147	0xbfd8d4b5d3c21f64	-0.3879828041030946
148	0xbfea2824300cd208	-0.8174000681379434
149	0xbfe09cddc8145ca5	-0.519148722439145
150	0x3f91c917d003f5c6	0.017368671485191965
151	0xbfc6128f73a33ab0	-0.17244141718261607
152	0x3f47be107f83e43d	0.0007245617444190455
153	0xbfc9f0f4a380b7d1	-0.20266588195357696
154	0xbfe6b33570f722bc	-0.7093760687212902
155	0x3fddf08b78051b8b	0.4678066894597854
156	0xbfb98fab98695508	-0.09984848471625096
157	0x3fcd808052a778ef	0.23048404727791857
158	0x3fa91717ae5e187e	0.04900430682668942
159	0xbfc48a931bc7b3f9	-0.1604789624829264
160	0x3fef644f03ceea6b	0.9809947084789433
161	0xbfae7722619c8aaf	-0.05950267259165309
162	0xbfbd846b77d0cd45	-0.11530181574999172
163	0x3fd0ec5f55bd2a38	0.26442702649061145
164	0x3fe953eaeba90c72	0.7914938547841202
165	0xbfa9eb9c17eeb844	-0.050625684663245824
166	0xbff4157addf4d715	-1.2552441282436508
167	0xc00f69e2474f6be9	-3.9267011233437086
168	0xbff364ff81509d27	-1.2121577311862184
169	0x3fcd81be6d29018a	0.23052196817480947
170	0xbfbd46d4b5646034	-0.11436204365270514
171	0x3fe75b0e09e2c345	0.7298650925714375
172	0x3fc6168f0a53f19d	0.17256343845646152
173	0xbfd0bb335a2ccb03	-0.26142581754827193
174	0xbfd4f89550052b55	-0.3276723176428978
175	0xbfd7243810c9b8e6	-0.3615856327004522
176	0x3fd978b7d2649c8c	0.3979930452937388
177	0x3fc69a547cd75152	0.17658477874523243
178	0xbfe2afcb1356aa2b	-0.5839591386514419
179	0xbfe496cd80b4f935	-0.643408538227766
180	0xbfe6f0d04b684c9b	-0.7168961975861693
181	0xbfcc872655c9c223	-0.22287444294808365
182	0x3fe066042f174b49	0.5124531669374416
183	0xbfe2c85f6b6b9f4f	-0.5869595621161156
184	0xbfe0fdce95cb8d90	-0.5309822965322599
185	0x3fc92ce1901054f5	0.19668216261258178
186	0xbfe896e299284cba	-0.7684185973506807
187	0x3fd92fb924b33605	0.39353779396046235
188	0xbfdcd77bd628ca46	-0.4506520835304041
189	0x3f8d721adb516b63	0.014377794092231338
190	0xbff02a03d8ca781b	-1.0102575748819678
191	0xbfe0e3a1958b6a5e	-0.5277870102684792
192	0xc00e01d9152a5d22	-3.7509023335984617
193	0x3fe47ddf064b2db7	0.6403651354716463
194	0xbfd9133357596649	-0.39179690866658184
195	0x3fc427ee52e57a92	0.15746859595943313
196	0xbfd43e13c686428e	-0.31628889453080766
197	0xbfb9035900982249	-0.09770733131893751
198	0xbfe33cd9813b4755	-0.6011779331258632
199	0xbfe452677a838edc	-0.6350591080522139
200	0xbfc65ee82443544f	-0.17477132578520346
201	0xbfd2327267661cc7	-0.28432903382822555
202	0xbf81051621feb814	-0.008310482895321804
203	0xbfb35cd6fa4d5e20	-0.07563537226575834
204	0x3fb8e3e7af7e5f14	0.09722755465042737
205	0xbfe10c45a778cf80	-0.5327480574546684
206	0x3fd0a83cf6f61c42	0.2602684413654438
207	0xbfbe4dae553b0674	-0.11837281781029124
208	0x3fc7c6256845b1a4	0.18573443976800974
209	0xbfd069e627fca688	-0.256463564920161
210	0xbfddaf12be42067d	-0.4638106210696618
211	0x3fc3b3ff780b865d	0.15393060075352852
212	0xbfeae9831e01d9f6	-0.8410049043730499
213	0xbfd30133b733af62	-0.2969483651238446
214	0xbfb5d97959ad50dc	-0.08534964026813746
215	0xbfab54827a291f65	-0.05337913266390507
216	0x3fdcf525bcc74b41	0.452462610582348
217	0x3fc9ec629c72dd3a	0.2025264037999735
218	0xbfd01372185f7731	-0.25118687038581117
219	0xbfb345322c1391fa	-0.0752745969398986
220	0x3fd7fe4138d47361	0.3748934798220969
221	0x3ff4527105ed4939	1.2701273185271715
222	0xbff5ba5bcbae53f8	-1.3579976993835299
223	0x3fc0acde14f41270	0.13027549765697044
224	0xbfa41ede2f6b8bd7	-0.039298003471934066
225	0x4001ed9e742dfae7	2.2410248829395303
226	0xbfc8ecb40e93e193	-0.1947236128978714
227	0xbf9225a1d80e78e5	-0.0177216804619257
228	0x3fd6ad95c48b6f5d	0.3543447894460224
229	0xbff37c1d5c526c70	-1.2178014379813042
230	0xbfdde979565b7b2a	-0.46737512048086904
231	0xbfd43e9e84c9d293	-0.3163219734918041
232	0xbff9255d563f6f0f	-1.571622216134475
233	0xbfe5e8ef7c983313	-0.6846845086562062
234	0x3fd021252483051c	0.2520230156479373
235	0x3fc9e753aff48e17	0.20237203685347602
236	0x3fea59deba6a58fe	0.8234704628873997
237	0xbfd1592088040aad	-0.271064884975355
238	0xbfe538911e5a92fd	-0.6631551354263078
239	0xbfc70e99a25375c4	-0.1801330607039927
240	0xc0094e519c8c5e81	-3.163241599115111
241	0x3fdfabb699dc7263	0.49485554719448127
242	0xbfe18bbb549b952b	-0.5483070995802896
243	0xbfc0493709e751d3	-0.12723434432576983
244	0xbfe74bdcb8a464f7	-0.7280105215351388
245	0xbfe52a4eb2a5a3f2	-0.661414479179369
246	0x3fc7d11a5f6f23fc	0.18606881770963912
247	0xbfe48e04183034ac	-0.6423359367778594
248	0xbf8148d8b7ebaed5	-0.008439725029766457
249	0xbff70611a8e71052	-1.4389816854245692
250	0xbfed5bafeec12a3e	-0.9174422896551915
251	0x3fdbbcc9f28d43a9	0.433397757403379
252	0xbfb35dbc26e72443	-0.07564903211381684
253	0x3fc7d9267582cb7f	0.1863143991264131
254	0x3ff046079b4b9df2	1.017097097990583
255	0xbfe7e2474f14f521	-0.7463718933646853

fc.2.bias f8 [50]
0	0x3fd684297f827269	0.35181653453927325
1	0xbfcf9b26491c0a26	-0.24692228860665572
2	0x3ff4438d02c68030	1.2664919002927597
3	0x3fe6a43d97341558	0.7075488999550243
4	0xbfc815dba1455ac4	-0.18816705107265908
5	0xbfdc898cc505f719	-0.4458953784995728
6	0x3ffd4baed22f722e	1.8309772692074477
7	0xbf9384ed857bea1e	-0.019061766884059243
8	0x400bbfd80d7a3418	3.468673806468825
9	0xc0020474cfc9fca8	-2.2521759255901834
10	0xbfe1913050a2f50c	-0.5489732336933755
11	0xbfe0c4a0e4a459f8	-0.5240025010742206
12	0xbfcace5cbec06d41	-0.20942267717405552
13	0xbfe82470a02e694a	-0.7544482353726292
14	0x3fee3f6683236b12	0.9452393113418529
15	0x400af3b71c6bc20f	3.369001600302233
16	0x3fd3d47415c15090	0.3098421299412246
17	0xbff57d98d6272636	-1.3431633344029144
18	0x400165178b054535	2.1743613110526447
19	0x3fda3012e900f9f7	0.4091841960361359
20	0x3fe1e7fc90466afd	0.5595686738846265
21	0xbfd31f0691f59757	-0.2987686562904534
22	0x40079a4f82e84d40	2.9503469683783408
23	0xc0002a50d48c326e	-2.020661983993981
24	0xbfe43874db4289c5	-0.6318916590137681
25	0x3fe7a9a0040a0714	0.7394561842813538
26	0x3fbbecfce5add70d	0.10908489806555739
27	0xbfd87bf38718ceee	-0.3825653857522714
28	0x3fcf59a12f2730be	0.2449227791061101
29	0xbff3c3929d39c6a4	-1.2352472440365228
30	0x3fa45235c4c7d5d4	0.039689712782926684
31	0xbff191ecf8f852a7	-1.0981263852492391
32	0xbfc2686ae3ea60ea	-0.14381157044113674
33	0xbfbb03770d60d923	-0.10552162243479705
34	0xbfa088539f596a87	-0.032290089799706094
35	0xbfb124d2433aa42c	-0.0669680990346399
36	0x3fc707914dae5b88	0.1799184445669335
37	0xbfdbf54345e50901	-0.43684465242053255
38	0xbfb7bcfd33e85050	-0.0927274944045291
39	0xbfb4fc591c793ddf	-0.0819755262866617
40	0x4002594ec75759d4	2.2936072896511437
41	0x3fe78e6c1dd7148b	0.73613553836971
42	0x3fcea5cfa14ac757	0.23943515182105088
43	0x3fdc6ec7f9543fa3	0.44426154469055684
44	0x3ff81c2d0e933f40	1.5068789071410293
45	0x3fe613bd4579e691	0.6899095875698597
46	0x3fe0efd8587f42e9	0.5292779663523933
47	0x3fe2c49130d007a6	0.5864950135585232
48	0x3fe2d2c246cb4767	0.5882274038979006
49	0x3ffe9b95e1dc6c84	1.9129847357460514

fc.4.weight f8 [6, 50]
0	0x3ff136b4080d4d0e	1.0758552851228305
1	0xc0181df59facaad7	-6.02925729266527
2	0x3ff4f51e19a47f9a	1.309843158880517
3	0xbfd5fc216adcf47c	-0.34351382671213293
4	0x3fc308e03920f39b	0.14870837010849133
5	0xc0049092a16dca92	-2.570592175639214
6	0x3ff75834b65daea5	1.459034645430543
7	0xbff0d3d09e217836	-1.051712625215726
8	0x3fe06237c723b93f	0.5119894875950094
9	0xc002e267d81c5cf8	-2.360549629560065
10	0x4004c50dc2c8166a	2.5962176530181766
11	0xbffb7fcf5348d826	-1.7187035802176154
12	0x3fd10089c1e44c2f	0.2656578439211356
13	0xbfca3097fc611cd5	-0.2046079618760134
14	0x40057085e802bd74	2.6799429059826085
15	0x3fe6929f392851c0	0.7053981891972896
16	0x3fd0208c79c48c51	0.2519866170061436
17	0xbfe044599bc04e38	-0.5083435098662852
18	0x3fe19516633e75aa	0.5494491518363038
19	0xbffad2dda6ae3922	-1.6764809142073962
20	0xbff8b50b4c11b088	-1.5442002269219604
21	0x3f7812d4dc1c714d	0.00587733410227671
22	0x3fe15e1b57f56a0e	0.5427376478140233
23	0xbff669b56c4802b7	-1.400807784055514
24	0xbff3bb535d7f2893	-1.233233800145659
25	0x3ff570ca2da7dfbf	1.3400365622928658
26	0xbfe00c6bfe9c5ee3	-0.5015163395755419
27	0x3fd3cabdf06ee8bb	0.30924938659485307
28	0xbff354c7405a1468	-1.2081978334183763
29	0xbffae2d47f124e95	-1.6803784335833474
30	0x3ffdb7c0f3b1239d	1.857361747667006
31	0xc006b0282b7b655c	-2.8360141179115725
32	0xbfeab62e445028dc	-0.8347388586273854
33	0xbfe3e4efe899e20b	-0.6216964285841312
34	0xbfc0e78cd9be23f6	-0.13206635124177496
35	0x3fdb27ba027a033d	0.4242997192559875
36	0xbfc53c2fccd0e9fa	-0.1658992528990238
37	0x3fda50ca140a2c11	0.411180991716436
38	0x3f917bae85d64c5b	0.01707337085606429
39	0x3fd46a26fc7febc2	0.3189790216271683
40	0x3fdb8de1936ff45c	0.4305347385232545
41	0x3fe501dd271d3b48	0.6564775241803114
42	0x3ff285866b4c9dad	1.1575988952043688
43	0x3fe331afd861d084	0.599815294858232
44	0x3ff33e8477044ee2	1.2027630471320028
45	0x4001f6dec187c00b	2.2455420608093895
46	0x3fcddff554a9c170	0.23339716562214674
47	0x40030c48cc92c53c	2.3809982282915865
48	0x3f9c758a610b831e	0.02779213158908355
49	0x3fe37b61888c4994	0.6088111559823113
50	0xbfc534e7d7b0e505	-0.16567705184733242
51	0x3fb9afa0c1ccd600	0.10033611995171299
52	0x3fd60cc388553dd9	0.34452904046790206
53	0x4006aab316988496	2.833349396256902
54	0xc013f2ad0830b908	-4.986988189672282
55	0xbf935c47f2d0929a	-0.018906711764560137
56	0x3ff826c4c729ca86	1.5094650058569257
57	0xbffedb661841aec6	-1.9285641620180498
58	0x3fd4a95001292c99	0.3228340159736916
59	0xbfedff0d1c07c202	-0.9373841807810666
60	0xc00afdf5cdce265d	-3.374003990033812
61	0xbfef635a856e1e79	-0.9808781248147646
62	0x3fee9ac05493298d	0.9563905383923142
63	0xbfebeda9102292fb	-0.8727612795961187
64	0x3ff5c549a66b5998	1.360665941310435
65	0x3fea36d6b71efd4c	0.8191941811163956
66	0x3fbda4b463422b7c	0.11579444335272443
67	0xc01237246ed59233	-4.5538499181607675
68	0x3ff22ce31e5f3b58	1.1359587847143384
69	0xbfed124081a24f93	-0.908478024665316
70	0x3ff47c9d31d7036d	1.280423350035757
71	0xbfb92ea83785d5b8	-0.09836818080460474
72	0x3fe14cc7ac21768e	0.5406225549629242
73	0xc00c9ffffdef2f77	-3.57812498460947
74	0xbff155a0da50bc44	-1.083405354303765
75	0x3fe4d60e035396e3	0.6511297287913432
76	0xc0000a60351fa346	-2.0050663137703024
77	0xbff663635e16cad6	-1.3992646861412843
78	0xbfee198a2decd571	-0.9406176468825561
79	0x3fca80102d59044f	0.2070331784653114
80	0x4001909ccb7f7051	2.1956115625635353
81	0x3ff21af60b512776	1.1315823022909774
82	0xbff694642b5d6ffb	-1.411228341478817
83	0xbffcd59387a5ec67	-1.802142648578206
84	0xbf86490905338962	-0.010881491156798876
85	0xbfd2c4b8ec7c3238	-0.2932569798875053
86	0x3ffc0e79a19e20bb	1.7535339654150863
87	0x3fe64c10ef69976e	0.6967854190850014
88	0xbfa93d2769e3c1e2	-0.049294692684160216
89	0x3fe1d1577a0381f4	0.5568044074134932
90	0x3fdec56939eac785	0.4807990136715648
91	0x3fe3532bff70997a	0.6039028157290851
92	0x3feca18d5d4c3451	0.8947207281322652
93	0x3fe0a04ea9f9f73f	0.5195687599041107
94	0x3ff69f3690f349d3	1.4138703977702007
95	0x3fefde11dbab29c3	0.9958581247713528
96	0x3fd9e252e39a1785	0.40443870760679373
97	0x3fe9dcc3e50c8e4c	0.8081988786329446
98	0xbf9ed368a81b8ab8	-0.030103335628960365
99	0x3fe6937367f7c583	0.7054993658659189
100	0x3ff243418c81ca53	1.141419934134906
101	0x3f7765178a404244	0.00571164317445089
102	0x3ff8b46041aec4bf	1.5440371099214614
103	0x3fde011d0efc56a1	0.4688179632515617
104	0x3fbb7e2e343ee24d	0.10739411139992079
105	0xbffd11f4e58f8708	-1.816883942338281
106	0x4000ec0399eea3a1	2.115241243930044
107	0x3fed223e13f620d4	0.910429991709885
108	0x3fe162f148246c87	0.5433279427555967
109	0xc0017bb926cb51e1	-2.185411742286519
110	0xbfe99101a85fe71c	-0.7989509857718278
111	0xbfddb17f9602b8da	-0.46395864152408495
112	0xbffa521bb657ea90	-1.6450459597387272
113	0xc00df7d679452c8e	-3.7460145448909037
114	0x3fc162531a76fde1	0.13581312935092085
115	0x3fe746a12b51a5ee	0.7273717733452807
116	0xc01416ead27aa819	-5.022380150543563
117	0x3ffaa5e8182300e4	1.665504545482741
118	0x3fe208f892fd13f9	0.5635950919028111
119	0xbff5535792201fd7	-1.332847185900382
120	0x3ff04c169e929269	1.0185762590637302
121	0x3fb015008a183745	0.06282046672296555
122	0x3fe22822cedf264b	0.5673994102919065
123	0xbff86de690742ab4	-1.526831211350026
124	0xbff387603f889e99	-1.2205507737907395
125	0x3fe05a6e2d19ea8d	0.5110388642199993
126	0xbfdeca1a3340bdb3	-0.4810853481785344
127	0xc011a0c318991e5c	-4.406994232507341
128	0xbff53fbcdabb6d33	-1.3280609649871848
129	0xc0126401f466302b	-4.5976637065287305
130	0x3ff7847ea07a083e	1.4698473232861171
131	0xc0115803fe60ab68	-4.335952734613649
132	0xbff4172feab4b541	-1.2556609314154488
133	0x3ff80884d3d0c82a	1.502079799084195
134	0xbfd79b7e1444e615	-0.3688655088368205
135	0x3fddea40cb699e4e	0.46742267479428257
136	0x3ff172fb505d176f	1.090571702881302
137	0xbff31db735de84be	-1.1947548012033589
138	0x3fb481d24dabbf5b	0.08010591884862832
139	0x3fa9e5fd8543f925	0.05058281184936878
140	0x3fe0089617eacb94	0.501048132622929
141	0x3ff2090a3943e037	1.1272070156974345
142	0xbfd6aa1813434762	-0.35413171654828635
143	0x3fe26842a5ae5eaf	0.5752270923575987
144	0x3ff2f515064ca305	1.1848345037525985
145	0x40041c4e4e314ed6	2.5138212307736962
146	0x3ff815dd0cf1752e	1.5053377633660818
147	0xbff2f73895bca487	-1.1853566979500856
148	0xbf9e700660969061	-0.029724216122886896
149	0x3fe5103b581ed386	0.6582314225293977
150	0x3ff380a01f3c7436	1.218902704254345
151	0xbfa939012dd8a57b	-0.0492630356278125
152	0x4009d47f6da3de46	3.228758675158846
153	0xbfe5143a6b07bc5d	-0.6587192621644921
154	0x3fc0b720f5ecfaa7	0.1305886460122185
155	0x400f4ce53b792fc1	3.9125466009481618
156	0x3ff3c8fa93cd36ea	1.2365670941830396
157	0xbffb6c811a9da49f	-1.7139903106383725
158	0x3fe190bb216efd1d	0.5489173558234232
159	0xc010e9030dbac91c	-4.227550711179244
160	0xc00a165188d744c8	-3.260897702283362
161	0xbfeb690c4d91deac	-0.8565732493434175
162	0xbff3c618d3740237	-1.2358635196579948
163	0xbff120d1910d4557	-1.0705123582923386
164	0x3ff3d01784befbf9	1.2383036790267836
165	0x3fe33b0e80967fa9	0.6009590636713159
166	0x3fc06689c5f4c8b0	0.12812921682195144
167	0xc00e7b91242196c0	-3.810335428500224
168	0xbf5ce6cfd656748a	-0.0017640142117223722
169	0xbfebdd9626348b4f	-0.8707991357990553
170	0xbfb2d11b7998df10	-0.07350322455101499
171	0xc011d73de14004de	-4.460196990520869
172	0x3fe9bab4f8a893fd	0.8040413719760405
173	0x3fc36a49e5315da0	0.15168117228561773
174	0xbff404fda2273a29	-1.2512184461699098
175	0x3fe4812ac572c8a3	0.6407674652494005
176	0xbfe66d2c353ca497	-0.7008267440588892
177	0xbfe0127be0d43bf8	-0.5022563353721798
178	0xbff5614a81b212df	-1.3362526956781762
179	0x3fd4908f2fe90a84	0.32132320097677103
180	0x3fd8c3ec7ce494f1	0.386958238568993
181	0x3feec91d4a783322	0.9620500998003971
182	0xbff3fb6312d79b61	-1.2488737808250436
183	0xbff3801fda0c1808	-1.2187803761930827
184	0xbfc3ba45c5fcd56d	-0.15412208716740441
185	0x3fed597079e185ec	0.9171678905951786
186	0xc0138d7c0703f031	-4.888168439498302
187	0x3fe4659e17c77b93	0.6374044861257623
188	0x3fcc942ef3829de1	0.22327219858310257
189	0x3fe4079761bbb366	0.625926676640671
190	0x3fe263cab048de05	0.5746816103991824
191	0x3fe19784f0aa306f	0.549746007965508
192	0x3fee553c24ced04d	0.9479046553519851
193	0x3fe005d7d4fc1e43	0.5007132682666867
194	0x3fec0550f1fbae80	0.8756489492638622
195	0x40059253872118ab	2.696448379228135
196	0x3fdb6f3afce7fd17	0.4286639661585964
197	0x3fedc489b0fd2e1f	0.9302414376083482
198	0x3fca710c010ddeae	0.20657491733049
199	0x3fe3fcf22ae18531	0.6246271932142574
200	0x3fe950379a94ea15	0.7910421389745489
201	0xbfc596b28c58336a	-0.16866142132530665
202	0x3ffb4bfd4e0b28eb	1.706052117212091
203	0x3feea83294d63dba	0.9580319315882015
204	0x3fc09ce6d3108aeb	0.1297882586087192
205	0xbff5bac2c99263a5	-1.3580959199809766
206	0x3ffc1028275909c9	1.7539445435546546
207	0xbff291218e89a8cd	-1.1604323928718714
208	0x3fe08fea055eb982	0.5175676445849577
209	0xc0012cf96b9b4b86	-2.146960106541374
210	0xbffa82bbb1eaa99f	-1.6569172811383408
211	0xbfef69b4ab601ff7	-0.9816535327126975
212	0xbfcfc1f303a0dbb6	-0.24810636212506915
213	0xbff0b80befa1afb0	-1.0449332581147068
214	0x3ff251730923c20f	1.1448850972193474
215	0x3fe53139b822f491	0.6622589680115586
216	0x3fbbd0c9affd0b43	0.10865459963410466
217	0xc0008a73bd004e1b	-2.067603565761386
218	0x3fe39cf4c42c05c4	0.6129096824153568
219	0xbff1a450f13d95e5	-1.1026162551364618
220	0x3fcb36b74c2cec1e	0.21260729999070888
221	0x3fa4e9f82998e176	0.04084754474428369
222	0x3fe2719eb8ea44de	0.576369630014735
223	0xbff92e44cbb295ce	-1.5737960774362025
224	0xbff222e6cab4cb76	-1.1335208814823239
225	0x3febf2e7692a42f1	0.8734013608937784
226	0xbfded407ab0036df	-0.48169128131199374
227	0xbfefc4bc01969e02	-0.9927654295942718
228	0xbff366b5cca7511a	-1.2125757211952704
229	0xbff928ea79814bad	-1.572489237431664
230	0x3fdc16ea2a9d5f47	0.43889860307307454
231	0xbff4699d19b0ccaa	-1.2757845881977041
232	0xbff230030717060a	-1.1367216374350186
233	0x3fb910bee4ba8c5d	0.09791176876255876
234	0xbfbdaaa3dc4fae65	-0.11588501099293465
235	0x3fdd006f0a30f02d	0.4531514739535421
236	0xbfb286c9cc8e646e	-0.0723692058949312
237	0x3fdd6539810f687b	0.45930326083692535
238	0x3fa6d703d26ce3bd	0.044609183727920755
239	0x3fe34da3c0aff46c	0.6032274974273952
240	0x3fe433c172170322	0.6313178280180163
241	0x3feab8770afb47e7	0.8350177015765866
242	0x3fe83413429be605	0.7563568402248967
243	0x3fe2b55268342833	0.5846340213040605
244	0x3ff215ee6881e04b	1.1303543169324424
245	0x3ffd46387ada31fb	1.8296437071722937
246	0x3fe5d13a91df1e9a	0.6817906235746307
247	0x3ff0dbce109f8756	1.053663315710272
248	0x3f7fa205d15578f8	0.007722876286918139
249	0x3fe5117072168b82	0.6583788135798019
250	0x3fef267f75a64110	0.9734494493332324
251	0xbfb218288b9792d5	-0.07068112762460584
252	0x40022a55f2504e96	2.270671742511534
253	0x3fef6902c6a17475	0.981568706465295
254	0x3fc6b29371f4e26d	0.1773247057369817
255	0xbfdd64e40afc18b1	-0.45928288529138245

fc.4.bias f8 [6]
0	0x3fead626e4938466	0.8386415924434345
1	0x3fe97e66d6c2c98b	0.7966798967884626
2	0x3fe9d1ecfc8e04af	0.8068756993017326
3	0x3ff5d90ebe1130a6	1.3654925751207343
4	0x3fd29bc878ba4a49	0.290758245370999
5	0xbfebc2cf78a996d9	-0.8675305706680901
